…
2022-12-17 21:28:26,133 INFO: Training statistics:
	Number of train images: 32592
	Dataset enlarge ratio: 100
	Batch size per gpu: 32
	World size (gpu number): 1
	Require iter number per epoch: 101850
	Total epochs: 10; iters: 1000000.
2022-12-17 21:28:26,137 INFO: Dataset [PairedImageDataset] - Set5 is built.
2022-12-17 21:28:26,137 INFO: Number of val images/folders in Set5: 5
2022-12-17 21:28:26,441 INFO: Network [WAEGANGenerator] is created.
2022-12-17 21:28:31,042 INFO: Network: WAEGANGenerator, with parameters: 26,008,963
2022-12-17 21:28:31,042 INFO: WAEGANGenerator(
  (encoder): Encoder(
    (body): Sequential(
      (0): Conv2d(3, 32, kernel_size=(3, 3), stride=(1, 1), padding=(1, 1))
      (1): TreeResidualEncoder(
        (dilated_models): ModuleList(
          (0): DilatedResidualConv(
            (body): Sequential(
              (0): Conv2d(32, 32, kernel_size=(3, 3), stride=(1, 1), padding=(1, 1))
              (1): GELU(approximate='none')
              (2): Conv2d(32, 32, kernel_size=(3, 3), stride=(1, 1), padding=(1, 1))
              (3): SELayer(
                (avg_pool): AdaptiveAvgPool2d(output_size=1)
                (fc): Sequential(
                  (0): Linear(in_features=32, out_features=2, bias=False)
                  (1): GELU(approximate='none')
                  (2): Linear(in_features=2, out_features=32, bias=False)
                  (3): Sigmoid()
                )
              )
            )
          )
          (1): DilatedResidualConv(
            (body): Sequential(
              (0): Conv2d(32, 32, kernel_size=(3, 3), stride=(1, 1), padding=(2, 2), dilation=(2, 2))
              (1): GELU(approximate='none')
              (2): Conv2d(32, 32, kernel_size=(3, 3), stride=(1, 1), padding=(2, 2), dilation=(2, 2))
              (3): SELayer(
                (avg_pool): AdaptiveAvgPool2d(output_size=1)
                (fc): Sequential(
                  (0): Linear(in_features=32, out_features=2, bias=False)
                  (1): GELU(approximate='none')
                  (2): Linear(in_features=2, out_features=32, bias=False)
                  (3): Sigmoid()
                )
              )
            )
          )
          (2): DilatedResidualConv(
            (body): Sequential(
              (0): Conv2d(32, 32, kernel_size=(3, 3), stride=(1, 1), padding=(3, 3), dilation=(3, 3))
              (1): GELU(approximate='none')
              (2): Conv2d(32, 32, kernel_size=(3, 3), stride=(1, 1), padding=(3, 3), dilation=(3, 3))
              (3): SELayer(
                (avg_pool): AdaptiveAvgPool2d(output_size=1)
                (fc): Sequential(
                  (0): Linear(in_features=32, out_features=2, bias=False)
                  (1): GELU(approximate='none')
                  (2): Linear(in_features=2, out_features=32, bias=False)
                  (3): Sigmoid()
                )
              )
            )
          )
          (3): DilatedResidualConv(
            (body): Sequential(
              (0): Conv2d(32, 32, kernel_size=(3, 3), stride=(1, 1), padding=(4, 4), dilation=(4, 4))
              (1): GELU(approximate='none')
              (2): Conv2d(32, 32, kernel_size=(3, 3), stride=(1, 1), padding=(4, 4), dilation=(4, 4))
              (3): SELayer(
                (avg_pool): AdaptiveAvgPool2d(output_size=1)
                (fc): Sequential(
                  (0): Linear(in_features=32, out_features=2, bias=False)
                  (1): GELU(approximate='none')
                  (2): Linear(in_features=2, out_features=32, bias=False)
                  (3): Sigmoid()
                )
              )
            )
          )
        )
        (fuse12): FuseBlock(
          (body): Sequential(
            (0): Linear(in_features=64, out_features=32, bias=True)
            (1): GELU(approximate='none')
          )
        )
        (fuse34): FuseBlock(
          (body): Sequential(
            (0): Linear(in_features=64, out_features=32, bias=True)
            (1): GELU(approximate='none')
          )
        )
        (fuse): FuseBlock(
          (body): Sequential(
            (0): Linear(in_features=64, out_features=32, bias=True)
            (1): GELU(approximate='none')
          )
        )
      )
      (2): Conv2d(32, 64, kernel_size=(3, 3), stride=(1, 1), padding=(1, 1))
      (3): TreeResidualEncoder(
        (dilated_models): ModuleList(
          (0): DilatedResidualConv(
            (body): Sequential(
              (0): Conv2d(64, 64, kernel_size=(3, 3), stride=(1, 1), padding=(1, 1))
              (1): GELU(approximate='none')
              (2): Conv2d(64, 64, kernel_size=(3, 3), stride=(1, 1), padding=(1, 1))
              (3): SELayer(
                (avg_pool): AdaptiveAvgPool2d(output_size=1)
                (fc): Sequential(
                  (0): Linear(in_features=64, out_features=4, bias=False)
                  (1): GELU(approximate='none')
                  (2): Linear(in_features=4, out_features=64, bias=False)
                  (3): Sigmoid()
                )
              )
            )
          )
          (1): DilatedResidualConv(
            (body): Sequential(
              (0): Conv2d(64, 64, kernel_size=(3, 3), stride=(1, 1), padding=(2, 2), dilation=(2, 2))
              (1): GELU(approximate='none')
              (2): Conv2d(64, 64, kernel_size=(3, 3), stride=(1, 1), padding=(2, 2), dilation=(2, 2))
              (3): SELayer(
                (avg_pool): AdaptiveAvgPool2d(output_size=1)
                (fc): Sequential(
                  (0): Linear(in_features=64, out_features=4, bias=False)
                  (1): GELU(approximate='none')
                  (2): Linear(in_features=4, out_features=64, bias=False)
                  (3): Sigmoid()
                )
              )
            )
          )
          (2): DilatedResidualConv(
            (body): Sequential(
              (0): Conv2d(64, 64, kernel_size=(3, 3), stride=(1, 1), padding=(3, 3), dilation=(3, 3))
              (1): GELU(approximate='none')
              (2): Conv2d(64, 64, kernel_size=(3, 3), stride=(1, 1), padding=(3, 3), dilation=(3, 3))
              (3): SELayer(
                (avg_pool): AdaptiveAvgPool2d(output_size=1)
                (fc): Sequential(
                  (0): Linear(in_features=64, out_features=4, bias=False)
                  (1): GELU(approximate='none')
                  (2): Linear(in_features=4, out_features=64, bias=False)
                  (3): Sigmoid()
                )
              )
            )
          )
          (3): DilatedResidualConv(
            (body): Sequential(
              (0): Conv2d(64, 64, kernel_size=(3, 3), stride=(1, 1), padding=(4, 4), dilation=(4, 4))
              (1): GELU(approximate='none')
              (2): Conv2d(64, 64, kernel_size=(3, 3), stride=(1, 1), padding=(4, 4), dilation=(4, 4))
              (3): SELayer(
                (avg_pool): AdaptiveAvgPool2d(output_size=1)
                (fc): Sequential(
                  (0): Linear(in_features=64, out_features=4, bias=False)
                  (1): GELU(approximate='none')
                  (2): Linear(in_features=4, out_features=64, bias=False)
                  (3): Sigmoid()
                )
              )
            )
          )
        )
        (fuse12): FuseBlock(
          (body): Sequential(
            (0): Linear(in_features=128, out_features=64, bias=True)
            (1): GELU(approximate='none')
          )
        )
        (fuse34): FuseBlock(
          (body): Sequential(
            (0): Linear(in_features=128, out_features=64, bias=True)
            (1): GELU(approximate='none')
          )
        )
        (fuse): FuseBlock(
          (body): Sequential(
            (0): Linear(in_features=128, out_features=64, bias=True)
            (1): GELU(approximate='none')
          )
        )
      )
      (4): Conv2d(64, 96, kernel_size=(3, 3), stride=(1, 1), padding=(1, 1))
      (5): TreeResidualEncoder(
        (dilated_models): ModuleList(
          (0): DilatedResidualConv(
            (body): Sequential(
              (0): Conv2d(96, 96, kernel_size=(3, 3), stride=(1, 1), padding=(1, 1))
              (1): GELU(approximate='none')
              (2): Conv2d(96, 96, kernel_size=(3, 3), stride=(1, 1), padding=(1, 1))
              (3): SELayer(
                (avg_pool): AdaptiveAvgPool2d(output_size=1)
                (fc): Sequential(
                  (0): Linear(in_features=96, out_features=6, bias=False)
                  (1): GELU(approximate='none')
                  (2): Linear(in_features=6, out_features=96, bias=False)
                  (3): Sigmoid()
                )
              )
            )
          )
          (1): DilatedResidualConv(
            (body): Sequential(
              (0): Conv2d(96, 96, kernel_size=(3, 3), stride=(1, 1), padding=(2, 2), dilation=(2, 2))
              (1): GELU(approximate='none')
              (2): Conv2d(96, 96, kernel_size=(3, 3), stride=(1, 1), padding=(2, 2), dilation=(2, 2))
              (3): SELayer(
                (avg_pool): AdaptiveAvgPool2d(output_size=1)
                (fc): Sequential(
                  (0): Linear(in_features=96, out_features=6, bias=False)
                  (1): GELU(approximate='none')
                  (2): Linear(in_features=6, out_features=96, bias=False)
                  (3): Sigmoid()
                )
              )
            )
          )
          (2): DilatedResidualConv(
            (body): Sequential(
              (0): Conv2d(96, 96, kernel_size=(3, 3), stride=(1, 1), padding=(3, 3), dilation=(3, 3))
              (1): GELU(approximate='none')
              (2): Conv2d(96, 96, kernel_size=(3, 3), stride=(1, 1), padding=(3, 3), dilation=(3, 3))
              (3): SELayer(
                (avg_pool): AdaptiveAvgPool2d(output_size=1)
                (fc): Sequential(
                  (0): Linear(in_features=96, out_features=6, bias=False)
                  (1): GELU(approximate='none')
                  (2): Linear(in_features=6, out_features=96, bias=False)
                  (3): Sigmoid()
                )
              )
            )
          )
          (3): DilatedResidualConv(
            (body): Sequential(
              (0): Conv2d(96, 96, kernel_size=(3, 3), stride=(1, 1), padding=(4, 4), dilation=(4, 4))
              (1): GELU(approximate='none')
              (2): Conv2d(96, 96, kernel_size=(3, 3), stride=(1, 1), padding=(4, 4), dilation=(4, 4))
              (3): SELayer(
                (avg_pool): AdaptiveAvgPool2d(output_size=1)
                (fc): Sequential(
                  (0): Linear(in_features=96, out_features=6, bias=False)
                  (1): GELU(approximate='none')
                  (2): Linear(in_features=6, out_features=96, bias=False)
                  (3): Sigmoid()
                )
              )
            )
          )
        )
        (fuse12): FuseBlock(
          (body): Sequential(
            (0): Linear(in_features=192, out_features=96, bias=True)
            (1): GELU(approximate='none')
          )
        )
        (fuse34): FuseBlock(
          (body): Sequential(
            (0): Linear(in_features=192, out_features=96, bias=True)
            (1): GELU(approximate='none')
          )
        )
        (fuse): FuseBlock(
          (body): Sequential(
            (0): Linear(in_features=192, out_features=96, bias=True)
            (1): GELU(approximate='none')
          )
        )
      )
      (6): Conv2d(96, 128, kernel_size=(3, 3), stride=(1, 1), padding=(1, 1))
      (7): TreeResidualEncoder(
        (dilated_models): ModuleList(
          (0): DilatedResidualConv(
            (body): Sequential(
              (0): Conv2d(128, 128, kernel_size=(3, 3), stride=(1, 1), padding=(1, 1))
              (1): GELU(approximate='none')
              (2): Conv2d(128, 128, kernel_size=(3, 3), stride=(1, 1), padding=(1, 1))
              (3): SELayer(
                (avg_pool): AdaptiveAvgPool2d(output_size=1)
                (fc): Sequential(
                  (0): Linear(in_features=128, out_features=8, bias=False)
                  (1): GELU(approximate='none')
                  (2): Linear(in_features=8, out_features=128, bias=False)
                  (3): Sigmoid()
                )
              )
            )
          )
          (1): DilatedResidualConv(
            (body): Sequential(
              (0): Conv2d(128, 128, kernel_size=(3, 3), stride=(1, 1), padding=(2, 2), dilation=(2, 2))
              (1): GELU(approximate='none')
              (2): Conv2d(128, 128, kernel_size=(3, 3), stride=(1, 1), padding=(2, 2), dilation=(2, 2))
              (3): SELayer(
                (avg_pool): AdaptiveAvgPool2d(output_size=1)
                (fc): Sequential(
                  (0): Linear(in_features=128, out_features=8, bias=False)
                  (1): GELU(approximate='none')
                  (2): Linear(in_features=8, out_features=128, bias=False)
                  (3): Sigmoid()
                )
              )
            )
          )
          (2): DilatedResidualConv(
            (body): Sequential(
              (0): Conv2d(128, 128, kernel_size=(3, 3), stride=(1, 1), padding=(3, 3), dilation=(3, 3))
              (1): GELU(approximate='none')
              (2): Conv2d(128, 128, kernel_size=(3, 3), stride=(1, 1), padding=(3, 3), dilation=(3, 3))
              (3): SELayer(
                (avg_pool): AdaptiveAvgPool2d(output_size=1)
                (fc): Sequential(
                  (0): Linear(in_features=128, out_features=8, bias=False)
                  (1): GELU(approximate='none')
                  (2): Linear(in_features=8, out_features=128, bias=False)
                  (3): Sigmoid()
                )
              )
            )
          )
          (3): DilatedResidualConv(
            (body): Sequential(
              (0): Conv2d(128, 128, kernel_size=(3, 3), stride=(1, 1), padding=(4, 4), dilation=(4, 4))
              (1): GELU(approximate='none')
              (2): Conv2d(128, 128, kernel_size=(3, 3), stride=(1, 1), padding=(4, 4), dilation=(4, 4))
              (3): SELayer(
                (avg_pool): AdaptiveAvgPool2d(output_size=1)
                (fc): Sequential(
                  (0): Linear(in_features=128, out_features=8, bias=False)
                  (1): GELU(approximate='none')
                  (2): Linear(in_features=8, out_features=128, bias=False)
                  (3): Sigmoid()
                )
              )
            )
          )
        )
        (fuse12): FuseBlock(
          (body): Sequential(
            (0): Linear(in_features=256, out_features=128, bias=True)
            (1): GELU(approximate='none')
          )
        )
        (fuse34): FuseBlock(
          (body): Sequential(
            (0): Linear(in_features=256, out_features=128, bias=True)
            (1): GELU(approximate='none')
          )
        )
        (fuse): FuseBlock(
          (body): Sequential(
            (0): Linear(in_features=256, out_features=128, bias=True)
            (1): GELU(approximate='none')
          )
        )
      )
      (8): Conv2d(128, 160, kernel_size=(3, 3), stride=(1, 1), padding=(1, 1))
      (9): TreeResidualEncoder(
        (dilated_models): ModuleList(
          (0): DilatedResidualConv(
            (body): Sequential(
              (0): Conv2d(160, 160, kernel_size=(3, 3), stride=(1, 1), padding=(1, 1))
              (1): GELU(approximate='none')
              (2): Conv2d(160, 160, kernel_size=(3, 3), stride=(1, 1), padding=(1, 1))
              (3): SELayer(
                (avg_pool): AdaptiveAvgPool2d(output_size=1)
                (fc): Sequential(
                  (0): Linear(in_features=160, out_features=10, bias=False)
                  (1): GELU(approximate='none')
                  (2): Linear(in_features=10, out_features=160, bias=False)
                  (3): Sigmoid()
                )
              )
            )
          )
          (1): DilatedResidualConv(
            (body): Sequential(
              (0): Conv2d(160, 160, kernel_size=(3, 3), stride=(1, 1), padding=(2, 2), dilation=(2, 2))
              (1): GELU(approximate='none')
              (2): Conv2d(160, 160, kernel_size=(3, 3), stride=(1, 1), padding=(2, 2), dilation=(2, 2))
              (3): SELayer(
                (avg_pool): AdaptiveAvgPool2d(output_size=1)
                (fc): Sequential(
                  (0): Linear(in_features=160, out_features=10, bias=False)
                  (1): GELU(approximate='none')
                  (2): Linear(in_features=10, out_features=160, bias=False)
                  (3): Sigmoid()
                )
              )
            )
          )
          (2): DilatedResidualConv(
            (body): Sequential(
              (0): Conv2d(160, 160, kernel_size=(3, 3), stride=(1, 1), padding=(3, 3), dilation=(3, 3))
              (1): GELU(approximate='none')
              (2): Conv2d(160, 160, kernel_size=(3, 3), stride=(1, 1), padding=(3, 3), dilation=(3, 3))
              (3): SELayer(
                (avg_pool): AdaptiveAvgPool2d(output_size=1)
                (fc): Sequential(
                  (0): Linear(in_features=160, out_features=10, bias=False)
                  (1): GELU(approximate='none')
                  (2): Linear(in_features=10, out_features=160, bias=False)
                  (3): Sigmoid()
                )
              )
            )
          )
          (3): DilatedResidualConv(
            (body): Sequential(
              (0): Conv2d(160, 160, kernel_size=(3, 3), stride=(1, 1), padding=(4, 4), dilation=(4, 4))
              (1): GELU(approximate='none')
              (2): Conv2d(160, 160, kernel_size=(3, 3), stride=(1, 1), padding=(4, 4), dilation=(4, 4))
              (3): SELayer(
                (avg_pool): AdaptiveAvgPool2d(output_size=1)
                (fc): Sequential(
                  (0): Linear(in_features=160, out_features=10, bias=False)
                  (1): GELU(approximate='none')
                  (2): Linear(in_features=10, out_features=160, bias=False)
                  (3): Sigmoid()
                )
              )
            )
          )
        )
        (fuse12): FuseBlock(
          (body): Sequential(
            (0): Linear(in_features=320, out_features=160, bias=True)
            (1): GELU(approximate='none')
          )
        )
        (fuse34): FuseBlock(
          (body): Sequential(
            (0): Linear(in_features=320, out_features=160, bias=True)
            (1): GELU(approximate='none')
          )
        )
        (fuse): FuseBlock(
          (body): Sequential(
            (0): Linear(in_features=320, out_features=160, bias=True)
            (1): GELU(approximate='none')
          )
        )
      )
      (10): Conv2d(160, 192, kernel_size=(3, 3), stride=(1, 1), padding=(1, 1))
      (11): TreeResidualEncoder(
        (dilated_models): ModuleList(
          (0): DilatedResidualConv(
            (body): Sequential(
              (0): Conv2d(192, 192, kernel_size=(3, 3), stride=(1, 1), padding=(1, 1))
              (1): GELU(approximate='none')
              (2): Conv2d(192, 192, kernel_size=(3, 3), stride=(1, 1), padding=(1, 1))
              (3): SELayer(
                (avg_pool): AdaptiveAvgPool2d(output_size=1)
                (fc): Sequential(
                  (0): Linear(in_features=192, out_features=12, bias=False)
                  (1): GELU(approximate='none')
                  (2): Linear(in_features=12, out_features=192, bias=False)
                  (3): Sigmoid()
                )
              )
            )
          )
          (1): DilatedResidualConv(
            (body): Sequential(
              (0): Conv2d(192, 192, kernel_size=(3, 3), stride=(1, 1), padding=(2, 2), dilation=(2, 2))
              (1): GELU(approximate='none')
              (2): Conv2d(192, 192, kernel_size=(3, 3), stride=(1, 1), padding=(2, 2), dilation=(2, 2))
              (3): SELayer(
                (avg_pool): AdaptiveAvgPool2d(output_size=1)
                (fc): Sequential(
                  (0): Linear(in_features=192, out_features=12, bias=False)
                  (1): GELU(approximate='none')
                  (2): Linear(in_features=12, out_features=192, bias=False)
                  (3): Sigmoid()
                )
              )
            )
          )
          (2): DilatedResidualConv(
            (body): Sequential(
              (0): Conv2d(192, 192, kernel_size=(3, 3), stride=(1, 1), padding=(3, 3), dilation=(3, 3))
              (1): GELU(approximate='none')
              (2): Conv2d(192, 192, kernel_size=(3, 3), stride=(1, 1), padding=(3, 3), dilation=(3, 3))
              (3): SELayer(
                (avg_pool): AdaptiveAvgPool2d(output_size=1)
                (fc): Sequential(
                  (0): Linear(in_features=192, out_features=12, bias=False)
                  (1): GELU(approximate='none')
                  (2): Linear(in_features=12, out_features=192, bias=False)
                  (3): Sigmoid()
                )
              )
            )
          )
          (3): DilatedResidualConv(
            (body): Sequential(
              (0): Conv2d(192, 192, kernel_size=(3, 3), stride=(1, 1), padding=(4, 4), dilation=(4, 4))
              (1): GELU(approximate='none')
              (2): Conv2d(192, 192, kernel_size=(3, 3), stride=(1, 1), padding=(4, 4), dilation=(4, 4))
              (3): SELayer(
                (avg_pool): AdaptiveAvgPool2d(output_size=1)
                (fc): Sequential(
                  (0): Linear(in_features=192, out_features=12, bias=False)
                  (1): GELU(approximate='none')
                  (2): Linear(in_features=12, out_features=192, bias=False)
                  (3): Sigmoid()
                )
              )
            )
          )
        )
        (fuse12): FuseBlock(
          (body): Sequential(
            (0): Linear(in_features=384, out_features=192, bias=True)
            (1): GELU(approximate='none')
          )
        )
        (fuse34): FuseBlock(
          (body): Sequential(
            (0): Linear(in_features=384, out_features=192, bias=True)
            (1): GELU(approximate='none')
          )
        )
        (fuse): FuseBlock(
          (body): Sequential(
            (0): Linear(in_features=384, out_features=192, bias=True)
            (1): GELU(approximate='none')
          )
        )
      )
      (12): Conv2d(192, 192, kernel_size=(3, 3), stride=(1, 1), padding=(1, 1))
      (13): TreeResidualEncoder(
        (dilated_models): ModuleList(
          (0): DilatedResidualConv(
            (body): Sequential(
              (0): Conv2d(192, 192, kernel_size=(3, 3), stride=(1, 1), padding=(1, 1))
              (1): GELU(approximate='none')
              (2): Conv2d(192, 192, kernel_size=(3, 3), stride=(1, 1), padding=(1, 1))
              (3): SELayer(
                (avg_pool): AdaptiveAvgPool2d(output_size=1)
                (fc): Sequential(
                  (0): Linear(in_features=192, out_features=12, bias=False)
                  (1): GELU(approximate='none')
                  (2): Linear(in_features=12, out_features=192, bias=False)
                  (3): Sigmoid()
                )
              )
            )
          )
          (1): DilatedResidualConv(
            (body): Sequential(
              (0): Conv2d(192, 192, kernel_size=(3, 3), stride=(1, 1), padding=(2, 2), dilation=(2, 2))
              (1): GELU(approximate='none')
              (2): Conv2d(192, 192, kernel_size=(3, 3), stride=(1, 1), padding=(2, 2), dilation=(2, 2))
              (3): SELayer(
                (avg_pool): AdaptiveAvgPool2d(output_size=1)
                (fc): Sequential(
                  (0): Linear(in_features=192, out_features=12, bias=False)
                  (1): GELU(approximate='none')
                  (2): Linear(in_features=12, out_features=192, bias=False)
                  (3): Sigmoid()
                )
              )
            )
          )
          (2): DilatedResidualConv(
            (body): Sequential(
              (0): Conv2d(192, 192, kernel_size=(3, 3), stride=(1, 1), padding=(3, 3), dilation=(3, 3))
              (1): GELU(approximate='none')
              (2): Conv2d(192, 192, kernel_size=(3, 3), stride=(1, 1), padding=(3, 3), dilation=(3, 3))
              (3): SELayer(
                (avg_pool): AdaptiveAvgPool2d(output_size=1)
                (fc): Sequential(
                  (0): Linear(in_features=192, out_features=12, bias=False)
                  (1): GELU(approximate='none')
                  (2): Linear(in_features=12, out_features=192, bias=False)
                  (3): Sigmoid()
                )
              )
            )
          )
          (3): DilatedResidualConv(
            (body): Sequential(
              (0): Conv2d(192, 192, kernel_size=(3, 3), stride=(1, 1), padding=(4, 4), dilation=(4, 4))
              (1): GELU(approximate='none')
              (2): Conv2d(192, 192, kernel_size=(3, 3), stride=(1, 1), padding=(4, 4), dilation=(4, 4))
              (3): SELayer(
                (avg_pool): AdaptiveAvgPool2d(output_size=1)
                (fc): Sequential(
                  (0): Linear(in_features=192, out_features=12, bias=False)
                  (1): GELU(approximate='none')
                  (2): Linear(in_features=12, out_features=192, bias=False)
                  (3): Sigmoid()
                )
              )
            )
          )
        )
        (fuse12): FuseBlock(
          (body): Sequential(
            (0): Linear(in_features=384, out_features=192, bias=True)
            (1): GELU(approximate='none')
          )
        )
        (fuse34): FuseBlock(
          (body): Sequential(
            (0): Linear(in_features=384, out_features=192, bias=True)
            (1): GELU(approximate='none')
          )
        )
        (fuse): FuseBlock(
          (body): Sequential(
            (0): Linear(in_features=384, out_features=192, bias=True)
            (1): GELU(approximate='none')
          )
        )
      )
      (14): Conv2d(192, 192, kernel_size=(3, 3), stride=(1, 1), padding=(1, 1))
      (15): TreeResidualEncoder(
        (dilated_models): ModuleList(
          (0): DilatedResidualConv(
            (body): Sequential(
              (0): Conv2d(192, 192, kernel_size=(3, 3), stride=(1, 1), padding=(1, 1))
              (1): GELU(approximate='none')
              (2): Conv2d(192, 192, kernel_size=(3, 3), stride=(1, 1), padding=(1, 1))
              (3): SELayer(
                (avg_pool): AdaptiveAvgPool2d(output_size=1)
                (fc): Sequential(
                  (0): Linear(in_features=192, out_features=12, bias=False)
                  (1): GELU(approximate='none')
                  (2): Linear(in_features=12, out_features=192, bias=False)
                  (3): Sigmoid()
                )
              )
            )
          )
          (1): DilatedResidualConv(
            (body): Sequential(
              (0): Conv2d(192, 192, kernel_size=(3, 3), stride=(1, 1), padding=(2, 2), dilation=(2, 2))
              (1): GELU(approximate='none')
              (2): Conv2d(192, 192, kernel_size=(3, 3), stride=(1, 1), padding=(2, 2), dilation=(2, 2))
              (3): SELayer(
                (avg_pool): AdaptiveAvgPool2d(output_size=1)
                (fc): Sequential(
                  (0): Linear(in_features=192, out_features=12, bias=False)
                  (1): GELU(approximate='none')
                  (2): Linear(in_features=12, out_features=192, bias=False)
                  (3): Sigmoid()
                )
              )
            )
          )
          (2): DilatedResidualConv(
            (body): Sequential(
              (0): Conv2d(192, 192, kernel_size=(3, 3), stride=(1, 1), padding=(3, 3), dilation=(3, 3))
              (1): GELU(approximate='none')
              (2): Conv2d(192, 192, kernel_size=(3, 3), stride=(1, 1), padding=(3, 3), dilation=(3, 3))
              (3): SELayer(
                (avg_pool): AdaptiveAvgPool2d(output_size=1)
                (fc): Sequential(
                  (0): Linear(in_features=192, out_features=12, bias=False)
                  (1): GELU(approximate='none')
                  (2): Linear(in_features=12, out_features=192, bias=False)
                  (3): Sigmoid()
                )
              )
            )
          )
          (3): DilatedResidualConv(
            (body): Sequential(
              (0): Conv2d(192, 192, kernel_size=(3, 3), stride=(1, 1), padding=(4, 4), dilation=(4, 4))
              (1): GELU(approximate='none')
              (2): Conv2d(192, 192, kernel_size=(3, 3), stride=(1, 1), padding=(4, 4), dilation=(4, 4))
              (3): SELayer(
                (avg_pool): AdaptiveAvgPool2d(output_size=1)
                (fc): Sequential(
                  (0): Linear(in_features=192, out_features=12, bias=False)
                  (1): GELU(approximate='none')
                  (2): Linear(in_features=12, out_features=192, bias=False)
                  (3): Sigmoid()
                )
              )
            )
          )
        )
        (fuse12): FuseBlock(
          (body): Sequential(
            (0): Linear(in_features=384, out_features=192, bias=True)
            (1): GELU(approximate='none')
          )
        )
        (fuse34): FuseBlock(
          (body): Sequential(
            (0): Linear(in_features=384, out_features=192, bias=True)
            (1): GELU(approximate='none')
          )
        )
        (fuse): FuseBlock(
          (body): Sequential(
            (0): Linear(in_features=384, out_features=192, bias=True)
            (1): GELU(approximate='none')
          )
        )
      )
    )
  )
  (decoder): Sequential(
    (0): Decoder(
      (body): Sequential(
        (0): Conv2d(192, 192, kernel_size=(3, 3), stride=(1, 1), padding=(1, 1))
        (1): TreeResidualEncoder(
          (dilated_models): ModuleList(
            (0): DilatedResidualConv(
              (body): Sequential(
                (0): Conv2d(192, 192, kernel_size=(3, 3), stride=(1, 1), padding=(1, 1))
                (1): GELU(approximate='none')
                (2): Conv2d(192, 192, kernel_size=(3, 3), stride=(1, 1), padding=(1, 1))
                (3): SELayer(
                  (avg_pool): AdaptiveAvgPool2d(output_size=1)
                  (fc): Sequential(
                    (0): Linear(in_features=192, out_features=12, bias=False)
                    (1): GELU(approximate='none')
                    (2): Linear(in_features=12, out_features=192, bias=False)
                    (3): Sigmoid()
                  )
                )
              )
            )
            (1): DilatedResidualConv(
              (body): Sequential(
                (0): Conv2d(192, 192, kernel_size=(3, 3), stride=(1, 1), padding=(2, 2), dilation=(2, 2))
                (1): GELU(approximate='none')
                (2): Conv2d(192, 192, kernel_size=(3, 3), stride=(1, 1), padding=(2, 2), dilation=(2, 2))
                (3): SELayer(
                  (avg_pool): AdaptiveAvgPool2d(output_size=1)
                  (fc): Sequential(
                    (0): Linear(in_features=192, out_features=12, bias=False)
                    (1): GELU(approximate='none')
                    (2): Linear(in_features=12, out_features=192, bias=False)
                    (3): Sigmoid()
                  )
                )
              )
            )
            (2): DilatedResidualConv(
              (body): Sequential(
                (0): Conv2d(192, 192, kernel_size=(3, 3), stride=(1, 1), padding=(3, 3), dilation=(3, 3))
                (1): GELU(approximate='none')
                (2): Conv2d(192, 192, kernel_size=(3, 3), stride=(1, 1), padding=(3, 3), dilation=(3, 3))
                (3): SELayer(
                  (avg_pool): AdaptiveAvgPool2d(output_size=1)
                  (fc): Sequential(
                    (0): Linear(in_features=192, out_features=12, bias=False)
                    (1): GELU(approximate='none')
                    (2): Linear(in_features=12, out_features=192, bias=False)
                    (3): Sigmoid()
                  )
                )
              )
            )
            (3): DilatedResidualConv(
              (body): Sequential(
                (0): Conv2d(192, 192, kernel_size=(3, 3), stride=(1, 1), padding=(4, 4), dilation=(4, 4))
                (1): GELU(approximate='none')
                (2): Conv2d(192, 192, kernel_size=(3, 3), stride=(1, 1), padding=(4, 4), dilation=(4, 4))
                (3): SELayer(
                  (avg_pool): AdaptiveAvgPool2d(output_size=1)
                  (fc): Sequential(
                    (0): Linear(in_features=192, out_features=12, bias=False)
                    (1): GELU(approximate='none')
                    (2): Linear(in_features=12, out_features=192, bias=False)
                    (3): Sigmoid()
                  )
                )
              )
            )
          )
          (fuse12): FuseBlock(
            (body): Sequential(
              (0): Linear(in_features=384, out_features=192, bias=True)
              (1): GELU(approximate='none')
            )
          )
          (fuse34): FuseBlock(
            (body): Sequential(
              (0): Linear(in_features=384, out_features=192, bias=True)
              (1): GELU(approximate='none')
            )
          )
          (fuse): FuseBlock(
            (body): Sequential(
              (0): Linear(in_features=384, out_features=192, bias=True)
              (1): GELU(approximate='none')
            )
          )
        )
        (2): Conv2d(192, 192, kernel_size=(3, 3), stride=(1, 1), padding=(1, 1))
        (3): TreeResidualEncoder(
          (dilated_models): ModuleList(
            (0): DilatedResidualConv(
              (body): Sequential(
                (0): Conv2d(192, 192, kernel_size=(3, 3), stride=(1, 1), padding=(1, 1))
                (1): GELU(approximate='none')
                (2): Conv2d(192, 192, kernel_size=(3, 3), stride=(1, 1), padding=(1, 1))
                (3): SELayer(
                  (avg_pool): AdaptiveAvgPool2d(output_size=1)
                  (fc): Sequential(
                    (0): Linear(in_features=192, out_features=12, bias=False)
                    (1): GELU(approximate='none')
                    (2): Linear(in_features=12, out_features=192, bias=False)
                    (3): Sigmoid()
                  )
                )
              )
            )
            (1): DilatedResidualConv(
              (body): Sequential(
                (0): Conv2d(192, 192, kernel_size=(3, 3), stride=(1, 1), padding=(2, 2), dilation=(2, 2))
                (1): GELU(approximate='none')
                (2): Conv2d(192, 192, kernel_size=(3, 3), stride=(1, 1), padding=(2, 2), dilation=(2, 2))
                (3): SELayer(
                  (avg_pool): AdaptiveAvgPool2d(output_size=1)
                  (fc): Sequential(
                    (0): Linear(in_features=192, out_features=12, bias=False)
                    (1): GELU(approximate='none')
                    (2): Linear(in_features=12, out_features=192, bias=False)
                    (3): Sigmoid()
                  )
                )
              )
            )
            (2): DilatedResidualConv(
              (body): Sequential(
                (0): Conv2d(192, 192, kernel_size=(3, 3), stride=(1, 1), padding=(3, 3), dilation=(3, 3))
                (1): GELU(approximate='none')
                (2): Conv2d(192, 192, kernel_size=(3, 3), stride=(1, 1), padding=(3, 3), dilation=(3, 3))
                (3): SELayer(
                  (avg_pool): AdaptiveAvgPool2d(output_size=1)
                  (fc): Sequential(
                    (0): Linear(in_features=192, out_features=12, bias=False)
                    (1): GELU(approximate='none')
                    (2): Linear(in_features=12, out_features=192, bias=False)
                    (3): Sigmoid()
                  )
                )
              )
            )
            (3): DilatedResidualConv(
              (body): Sequential(
                (0): Conv2d(192, 192, kernel_size=(3, 3), stride=(1, 1), padding=(4, 4), dilation=(4, 4))
                (1): GELU(approximate='none')
                (2): Conv2d(192, 192, kernel_size=(3, 3), stride=(1, 1), padding=(4, 4), dilation=(4, 4))
                (3): SELayer(
                  (avg_pool): AdaptiveAvgPool2d(output_size=1)
                  (fc): Sequential(
                    (0): Linear(in_features=192, out_features=12, bias=False)
                    (1): GELU(approximate='none')
                    (2): Linear(in_features=12, out_features=192, bias=False)
                    (3): Sigmoid()
                  )
                )
              )
            )
          )
          (fuse12): FuseBlock(
            (body): Sequential(
              (0): Linear(in_features=384, out_features=192, bias=True)
              (1): GELU(approximate='none')
            )
          )
          (fuse34): FuseBlock(
            (body): Sequential(
              (0): Linear(in_features=384, out_features=192, bias=True)
              (1): GELU(approximate='none')
            )
          )
          (fuse): FuseBlock(
            (body): Sequential(
              (0): Linear(in_features=384, out_features=192, bias=True)
              (1): GELU(approximate='none')
            )
          )
        )
        (4): Conv2d(192, 160, kernel_size=(3, 3), stride=(1, 1), padding=(1, 1))
        (5): TreeResidualEncoder(
          (dilated_models): ModuleList(
            (0): DilatedResidualConv(
              (body): Sequential(
                (0): Conv2d(160, 160, kernel_size=(3, 3), stride=(1, 1), padding=(1, 1))
                (1): GELU(approximate='none')
                (2): Conv2d(160, 160, kernel_size=(3, 3), stride=(1, 1), padding=(1, 1))
                (3): SELayer(
                  (avg_pool): AdaptiveAvgPool2d(output_size=1)
                  (fc): Sequential(
                    (0): Linear(in_features=160, out_features=10, bias=False)
                    (1): GELU(approximate='none')
                    (2): Linear(in_features=10, out_features=160, bias=False)
                    (3): Sigmoid()
                  )
                )
              )
            )
            (1): DilatedResidualConv(
              (body): Sequential(
                (0): Conv2d(160, 160, kernel_size=(3, 3), stride=(1, 1), padding=(2, 2), dilation=(2, 2))
                (1): GELU(approximate='none')
                (2): Conv2d(160, 160, kernel_size=(3, 3), stride=(1, 1), padding=(2, 2), dilation=(2, 2))
                (3): SELayer(
                  (avg_pool): AdaptiveAvgPool2d(output_size=1)
                  (fc): Sequential(
                    (0): Linear(in_features=160, out_features=10, bias=False)
                    (1): GELU(approximate='none')
                    (2): Linear(in_features=10, out_features=160, bias=False)
                    (3): Sigmoid()
                  )
                )
              )
            )
            (2): DilatedResidualConv(
              (body): Sequential(
                (0): Conv2d(160, 160, kernel_size=(3, 3), stride=(1, 1), padding=(3, 3), dilation=(3, 3))
                (1): GELU(approximate='none')
                (2): Conv2d(160, 160, kernel_size=(3, 3), stride=(1, 1), padding=(3, 3), dilation=(3, 3))
                (3): SELayer(
                  (avg_pool): AdaptiveAvgPool2d(output_size=1)
                  (fc): Sequential(
                    (0): Linear(in_features=160, out_features=10, bias=False)
                    (1): GELU(approximate='none')
                    (2): Linear(in_features=10, out_features=160, bias=False)
                    (3): Sigmoid()
                  )
                )
              )
            )
            (3): DilatedResidualConv(
              (body): Sequential(
                (0): Conv2d(160, 160, kernel_size=(3, 3), stride=(1, 1), padding=(4, 4), dilation=(4, 4))
                (1): GELU(approximate='none')
                (2): Conv2d(160, 160, kernel_size=(3, 3), stride=(1, 1), padding=(4, 4), dilation=(4, 4))
                (3): SELayer(
                  (avg_pool): AdaptiveAvgPool2d(output_size=1)
                  (fc): Sequential(
                    (0): Linear(in_features=160, out_features=10, bias=False)
                    (1): GELU(approximate='none')
                    (2): Linear(in_features=10, out_features=160, bias=False)
                    (3): Sigmoid()
                  )
                )
              )
            )
          )
          (fuse12): FuseBlock(
            (body): Sequential(
              (0): Linear(in_features=320, out_features=160, bias=True)
              (1): GELU(approximate='none')
            )
          )
          (fuse34): FuseBlock(
            (body): Sequential(
              (0): Linear(in_features=320, out_features=160, bias=True)
              (1): GELU(approximate='none')
            )
          )
          (fuse): FuseBlock(
            (body): Sequential(
              (0): Linear(in_features=320, out_features=160, bias=True)
              (1): GELU(approximate='none')
            )
          )
        )
        (6): Conv2d(160, 128, kernel_size=(3, 3), stride=(1, 1), padding=(1, 1))
        (7): TreeResidualEncoder(
          (dilated_models): ModuleList(
            (0): DilatedResidualConv(
              (body): Sequential(
                (0): Conv2d(128, 128, kernel_size=(3, 3), stride=(1, 1), padding=(1, 1))
                (1): GELU(approximate='none')
                (2): Conv2d(128, 128, kernel_size=(3, 3), stride=(1, 1), padding=(1, 1))
                (3): SELayer(
                  (avg_pool): AdaptiveAvgPool2d(output_size=1)
                  (fc): Sequential(
                    (0): Linear(in_features=128, out_features=8, bias=False)
                    (1): GELU(approximate='none')
                    (2): Linear(in_features=8, out_features=128, bias=False)
                    (3): Sigmoid()
                  )
                )
              )
            )
            (1): DilatedResidualConv(
              (body): Sequential(
                (0): Conv2d(128, 128, kernel_size=(3, 3), stride=(1, 1), padding=(2, 2), dilation=(2, 2))
                (1): GELU(approximate='none')
                (2): Conv2d(128, 128, kernel_size=(3, 3), stride=(1, 1), padding=(2, 2), dilation=(2, 2))
                (3): SELayer(
                  (avg_pool): AdaptiveAvgPool2d(output_size=1)
                  (fc): Sequential(
                    (0): Linear(in_features=128, out_features=8, bias=False)
                    (1): GELU(approximate='none')
                    (2): Linear(in_features=8, out_features=128, bias=False)
                    (3): Sigmoid()
                  )
                )
              )
            )
            (2): DilatedResidualConv(
              (body): Sequential(
                (0): Conv2d(128, 128, kernel_size=(3, 3), stride=(1, 1), padding=(3, 3), dilation=(3, 3))
                (1): GELU(approximate='none')
                (2): Conv2d(128, 128, kernel_size=(3, 3), stride=(1, 1), padding=(3, 3), dilation=(3, 3))
                (3): SELayer(
                  (avg_pool): AdaptiveAvgPool2d(output_size=1)
                  (fc): Sequential(
                    (0): Linear(in_features=128, out_features=8, bias=False)
                    (1): GELU(approximate='none')
                    (2): Linear(in_features=8, out_features=128, bias=False)
                    (3): Sigmoid()
                  )
                )
              )
            )
            (3): DilatedResidualConv(
              (body): Sequential(
                (0): Conv2d(128, 128, kernel_size=(3, 3), stride=(1, 1), padding=(4, 4), dilation=(4, 4))
                (1): GELU(approximate='none')
                (2): Conv2d(128, 128, kernel_size=(3, 3), stride=(1, 1), padding=(4, 4), dilation=(4, 4))
                (3): SELayer(
                  (avg_pool): AdaptiveAvgPool2d(output_size=1)
                  (fc): Sequential(
                    (0): Linear(in_features=128, out_features=8, bias=False)
                    (1): GELU(approximate='none')
                    (2): Linear(in_features=8, out_features=128, bias=False)
                    (3): Sigmoid()
                  )
                )
              )
            )
          )
          (fuse12): FuseBlock(
            (body): Sequential(
              (0): Linear(in_features=256, out_features=128, bias=True)
              (1): GELU(approximate='none')
            )
          )
          (fuse34): FuseBlock(
            (body): Sequential(
              (0): Linear(in_features=256, out_features=128, bias=True)
              (1): GELU(approximate='none')
            )
          )
          (fuse): FuseBlock(
            (body): Sequential(
              (0): Linear(in_features=256, out_features=128, bias=True)
              (1): GELU(approximate='none')
            )
          )
        )
        (8): Conv2d(128, 96, kernel_size=(3, 3), stride=(1, 1), padding=(1, 1))
        (9): TreeResidualEncoder(
          (dilated_models): ModuleList(
            (0): DilatedResidualConv(
              (body): Sequential(
                (0): Conv2d(96, 96, kernel_size=(3, 3), stride=(1, 1), padding=(1, 1))
                (1): GELU(approximate='none')
                (2): Conv2d(96, 96, kernel_size=(3, 3), stride=(1, 1), padding=(1, 1))
                (3): SELayer(
                  (avg_pool): AdaptiveAvgPool2d(output_size=1)
                  (fc): Sequential(
                    (0): Linear(in_features=96, out_features=6, bias=False)
                    (1): GELU(approximate='none')
                    (2): Linear(in_features=6, out_features=96, bias=False)
                    (3): Sigmoid()
                  )
                )
              )
            )
            (1): DilatedResidualConv(
              (body): Sequential(
                (0): Conv2d(96, 96, kernel_size=(3, 3), stride=(1, 1), padding=(2, 2), dilation=(2, 2))
                (1): GELU(approximate='none')
                (2): Conv2d(96, 96, kernel_size=(3, 3), stride=(1, 1), padding=(2, 2), dilation=(2, 2))
                (3): SELayer(
                  (avg_pool): AdaptiveAvgPool2d(output_size=1)
                  (fc): Sequential(
                    (0): Linear(in_features=96, out_features=6, bias=False)
                    (1): GELU(approximate='none')
                    (2): Linear(in_features=6, out_features=96, bias=False)
                    (3): Sigmoid()
                  )
                )
              )
            )
            (2): DilatedResidualConv(
              (body): Sequential(
                (0): Conv2d(96, 96, kernel_size=(3, 3), stride=(1, 1), padding=(3, 3), dilation=(3, 3))
                (1): GELU(approximate='none')
                (2): Conv2d(96, 96, kernel_size=(3, 3), stride=(1, 1), padding=(3, 3), dilation=(3, 3))
                (3): SELayer(
                  (avg_pool): AdaptiveAvgPool2d(output_size=1)
                  (fc): Sequential(
                    (0): Linear(in_features=96, out_features=6, bias=False)
                    (1): GELU(approximate='none')
                    (2): Linear(in_features=6, out_features=96, bias=False)
                    (3): Sigmoid()
                  )
                )
              )
            )
            (3): DilatedResidualConv(
              (body): Sequential(
                (0): Conv2d(96, 96, kernel_size=(3, 3), stride=(1, 1), padding=(4, 4), dilation=(4, 4))
                (1): GELU(approximate='none')
                (2): Conv2d(96, 96, kernel_size=(3, 3), stride=(1, 1), padding=(4, 4), dilation=(4, 4))
                (3): SELayer(
                  (avg_pool): AdaptiveAvgPool2d(output_size=1)
                  (fc): Sequential(
                    (0): Linear(in_features=96, out_features=6, bias=False)
                    (1): GELU(approximate='none')
                    (2): Linear(in_features=6, out_features=96, bias=False)
                    (3): Sigmoid()
                  )
                )
              )
            )
          )
          (fuse12): FuseBlock(
            (body): Sequential(
              (0): Linear(in_features=192, out_features=96, bias=True)
              (1): GELU(approximate='none')
            )
          )
          (fuse34): FuseBlock(
            (body): Sequential(
              (0): Linear(in_features=192, out_features=96, bias=True)
              (1): GELU(approximate='none')
            )
          )
          (fuse): FuseBlock(
            (body): Sequential(
              (0): Linear(in_features=192, out_features=96, bias=True)
              (1): GELU(approximate='none')
            )
          )
        )
        (10): Conv2d(96, 64, kernel_size=(3, 3), stride=(1, 1), padding=(1, 1))
        (11): TreeResidualEncoder(
          (dilated_models): ModuleList(
            (0): DilatedResidualConv(
              (body): Sequential(
                (0): Conv2d(64, 64, kernel_size=(3, 3), stride=(1, 1), padding=(1, 1))
                (1): GELU(approximate='none')
                (2): Conv2d(64, 64, kernel_size=(3, 3), stride=(1, 1), padding=(1, 1))
                (3): SELayer(
                  (avg_pool): AdaptiveAvgPool2d(output_size=1)
                  (fc): Sequential(
                    (0): Linear(in_features=64, out_features=4, bias=False)
                    (1): GELU(approximate='none')
                    (2): Linear(in_features=4, out_features=64, bias=False)
                    (3): Sigmoid()
                  )
                )
              )
            )
            (1): DilatedResidualConv(
              (body): Sequential(
                (0): Conv2d(64, 64, kernel_size=(3, 3), stride=(1, 1), padding=(2, 2), dilation=(2, 2))
                (1): GELU(approximate='none')
                (2): Conv2d(64, 64, kernel_size=(3, 3), stride=(1, 1), padding=(2, 2), dilation=(2, 2))
                (3): SELayer(
                  (avg_pool): AdaptiveAvgPool2d(output_size=1)
                  (fc): Sequential(
                    (0): Linear(in_features=64, out_features=4, bias=False)
                    (1): GELU(approximate='none')
                    (2): Linear(in_features=4, out_features=64, bias=False)
                    (3): Sigmoid()
                  )
                )
              )
            )
            (2): DilatedResidualConv(
              (body): Sequential(
                (0): Conv2d(64, 64, kernel_size=(3, 3), stride=(1, 1), padding=(3, 3), dilation=(3, 3))
                (1): GELU(approximate='none')
                (2): Conv2d(64, 64, kernel_size=(3, 3), stride=(1, 1), padding=(3, 3), dilation=(3, 3))
                (3): SELayer(
                  (avg_pool): AdaptiveAvgPool2d(output_size=1)
                  (fc): Sequential(
                    (0): Linear(in_features=64, out_features=4, bias=False)
                    (1): GELU(approximate='none')
                    (2): Linear(in_features=4, out_features=64, bias=False)
                    (3): Sigmoid()
                  )
                )
              )
            )
            (3): DilatedResidualConv(
              (body): Sequential(
                (0): Conv2d(64, 64, kernel_size=(3, 3), stride=(1, 1), padding=(4, 4), dilation=(4, 4))
                (1): GELU(approximate='none')
                (2): Conv2d(64, 64, kernel_size=(3, 3), stride=(1, 1), padding=(4, 4), dilation=(4, 4))
                (3): SELayer(
                  (avg_pool): AdaptiveAvgPool2d(output_size=1)
                  (fc): Sequential(
                    (0): Linear(in_features=64, out_features=4, bias=False)
                    (1): GELU(approximate='none')
                    (2): Linear(in_features=4, out_features=64, bias=False)
                    (3): Sigmoid()
                  )
                )
              )
            )
          )
          (fuse12): FuseBlock(
            (body): Sequential(
              (0): Linear(in_features=128, out_features=64, bias=True)
              (1): GELU(approximate='none')
            )
          )
          (fuse34): FuseBlock(
            (body): Sequential(
              (0): Linear(in_features=128, out_features=64, bias=True)
              (1): GELU(approximate='none')
            )
          )
          (fuse): FuseBlock(
            (body): Sequential(
              (0): Linear(in_features=128, out_features=64, bias=True)
              (1): GELU(approximate='none')
            )
          )
        )
        (12): Conv2d(64, 32, kernel_size=(3, 3), stride=(1, 1), padding=(1, 1))
        (13): TreeResidualEncoder(
          (dilated_models): ModuleList(
            (0): DilatedResidualConv(
              (body): Sequential(
                (0): Conv2d(32, 32, kernel_size=(3, 3), stride=(1, 1), padding=(1, 1))
                (1): GELU(approximate='none')
                (2): Conv2d(32, 32, kernel_size=(3, 3), stride=(1, 1), padding=(1, 1))
                (3): SELayer(
                  (avg_pool): AdaptiveAvgPool2d(output_size=1)
                  (fc): Sequential(
                    (0): Linear(in_features=32, out_features=2, bias=False)
                    (1): GELU(approximate='none')
                    (2): Linear(in_features=2, out_features=32, bias=False)
                    (3): Sigmoid()
                  )
                )
              )
            )
            (1): DilatedResidualConv(
              (body): Sequential(
                (0): Conv2d(32, 32, kernel_size=(3, 3), stride=(1, 1), padding=(2, 2), dilation=(2, 2))
                (1): GELU(approximate='none')
                (2): Conv2d(32, 32, kernel_size=(3, 3), stride=(1, 1), padding=(2, 2), dilation=(2, 2))
                (3): SELayer(
                  (avg_pool): AdaptiveAvgPool2d(output_size=1)
                  (fc): Sequential(
                    (0): Linear(in_features=32, out_features=2, bias=False)
                    (1): GELU(approximate='none')
                    (2): Linear(in_features=2, out_features=32, bias=False)
                    (3): Sigmoid()
                  )
                )
              )
            )
            (2): DilatedResidualConv(
              (body): Sequential(
                (0): Conv2d(32, 32, kernel_size=(3, 3), stride=(1, 1), padding=(3, 3), dilation=(3, 3))
                (1): GELU(approximate='none')
                (2): Conv2d(32, 32, kernel_size=(3, 3), stride=(1, 1), padding=(3, 3), dilation=(3, 3))
                (3): SELayer(
                  (avg_pool): AdaptiveAvgPool2d(output_size=1)
                  (fc): Sequential(
                    (0): Linear(in_features=32, out_features=2, bias=False)
                    (1): GELU(approximate='none')
                    (2): Linear(in_features=2, out_features=32, bias=False)
                    (3): Sigmoid()
                  )
                )
              )
            )
            (3): DilatedResidualConv(
              (body): Sequential(
                (0): Conv2d(32, 32, kernel_size=(3, 3), stride=(1, 1), padding=(4, 4), dilation=(4, 4))
                (1): GELU(approximate='none')
                (2): Conv2d(32, 32, kernel_size=(3, 3), stride=(1, 1), padding=(4, 4), dilation=(4, 4))
                (3): SELayer(
                  (avg_pool): AdaptiveAvgPool2d(output_size=1)
                  (fc): Sequential(
                    (0): Linear(in_features=32, out_features=2, bias=False)
                    (1): GELU(approximate='none')
                    (2): Linear(in_features=2, out_features=32, bias=False)
                    (3): Sigmoid()
                  )
                )
              )
            )
          )
          (fuse12): FuseBlock(
            (body): Sequential(
              (0): Linear(in_features=64, out_features=32, bias=True)
              (1): GELU(approximate='none')
            )
          )
          (fuse34): FuseBlock(
            (body): Sequential(
              (0): Linear(in_features=64, out_features=32, bias=True)
              (1): GELU(approximate='none')
            )
          )
          (fuse): FuseBlock(
            (body): Sequential(
              (0): Linear(in_features=64, out_features=32, bias=True)
              (1): GELU(approximate='none')
            )
          )
        )
      )
    )
    (1): Conv2d(32, 32, kernel_size=(3, 3), stride=(1, 1), padding=(1, 1))
    (2): Upsample(
      (conv1): Conv2d(32, 128, kernel_size=(3, 3), stride=(1, 1), padding=(1, 1))
      (conv2): Conv2d(32, 32, kernel_size=(3, 3), stride=(1, 1), padding=(1, 1))
    )
    (3): Conv2d(32, 3, kernel_size=(3, 3), stride=(1, 1), padding=(1, 1))
  )
)
2022-12-17 21:28:31,042 INFO: Use Exponential Moving Average with decay: 0.999
2022-12-17 21:28:31,235 INFO: Network [WAEGANGenerator] is created.
2022-12-17 21:28:31,582 INFO: Network [UNetDiscriminatorSN] is created.
2022-12-17 21:28:31,586 INFO: Network: UNetDiscriminatorSN, with parameters: 4,485,761
2022-12-17 21:28:31,591 INFO: UNetDiscriminatorSN(
  (conv0): Conv2d(192, 64, kernel_size=(3, 3), stride=(1, 1), padding=(1, 1))
  (conv1): Conv2d(64, 128, kernel_size=(4, 4), stride=(2, 2), padding=(1, 1), bias=False)
  (conv2): Conv2d(128, 256, kernel_size=(4, 4), stride=(2, 2), padding=(1, 1), bias=False)
  (conv3): Conv2d(256, 512, kernel_size=(4, 4), stride=(2, 2), padding=(1, 1), bias=False)
  (conv4): Conv2d(512, 256, kernel_size=(3, 3), stride=(1, 1), padding=(1, 1), bias=False)
  (conv5): Conv2d(256, 128, kernel_size=(3, 3), stride=(1, 1), padding=(1, 1), bias=False)
  (conv6): Conv2d(128, 64, kernel_size=(3, 3), stride=(1, 1), padding=(1, 1), bias=False)
  (conv7): Conv2d(64, 64, kernel_size=(3, 3), stride=(1, 1), padding=(1, 1), bias=False)
  (conv8): Conv2d(64, 64, kernel_size=(3, 3), stride=(1, 1), padding=(1, 1), bias=False)
  (conv9): Conv2d(64, 1, kernel_size=(3, 3), stride=(1, 1), padding=(1, 1))
)
2022-12-17 21:28:31,622 INFO: Network [UNetDiscriminatorSN] is created.
2022-12-17 21:28:31,625 INFO: Network: UNetDiscriminatorSN, with parameters: 4,376,897
2022-12-17 21:28:31,626 INFO: UNetDiscriminatorSN(
  (conv0): Conv2d(3, 64, kernel_size=(3, 3), stride=(1, 1), padding=(1, 1))
  (conv1): Conv2d(64, 128, kernel_size=(4, 4), stride=(2, 2), padding=(1, 1), bias=False)
  (conv2): Conv2d(128, 256, kernel_size=(4, 4), stride=(2, 2), padding=(1, 1), bias=False)
  (conv3): Conv2d(256, 512, kernel_size=(4, 4), stride=(2, 2), padding=(1, 1), bias=False)
  (conv4): Conv2d(512, 256, kernel_size=(3, 3), stride=(1, 1), padding=(1, 1), bias=False)
  (conv5): Conv2d(256, 128, kernel_size=(3, 3), stride=(1, 1), padding=(1, 1), bias=False)
  (conv6): Conv2d(128, 64, kernel_size=(3, 3), stride=(1, 1), padding=(1, 1), bias=False)
  (conv7): Conv2d(64, 64, kernel_size=(3, 3), stride=(1, 1), padding=(1, 1), bias=False)
  (conv8): Conv2d(64, 64, kernel_size=(3, 3), stride=(1, 1), padding=(1, 1), bias=False)
  (conv9): Conv2d(64, 1, kernel_size=(3, 3), stride=(1, 1), padding=(1, 1))
)
2022-12-17 21:28:31,628 INFO: Loss [L1Loss] is created.
2022-12-17 21:28:31,629 INFO: Loss [GANLoss] is created.
2022-12-17 21:28:31,629 INFO: Loss [GANLoss] is created.
2022-12-17 21:28:31,654 INFO: Model [WAEGANModel] is created.
2022-12-17 21:28:32,848 INFO: Start training from epoch: 0, iter: 0
2022-12-17 21:29:48,261 INFO: [WAEGA..][
…
